model.tflite (tflite, 535140 bytes, 14 tensors)

sequential/dense_2/BiasAdd/ReadVariableOp/resource f4 [7]
000000 74 a8 4c bd 70 fa e0 3d a6 8e 7a 3e f2 d6 33 be
       -0.049965337 0.10985267 0.24468479 -0.17562464
000010 9d 7a 43 bd 6d 44 c3 bd 05 2c 46 bd
       -0.047724355 -0.095345356 -0.048381824

sequential/dense_1/BiasAdd/ReadVariableOp/resource f4 [32]
000000 53 d6 06 bc 90 91 8d bc 04 70 39 3b 95 f4 af bc
       -0.00822981 -0.017281324 0.0028295526 -0.02147893
000010 ab 05 8b bd 77 1a 85 bc 0b 00 b2 3c a4 68 74 bd
       -0.067881905 -0.016247971 0.021728536 -0.059670106
000020 a6 6e 55 bd 18 38 2f 3d d2 04 e6 3c cf 61 15 bd
       -0.052107476 0.042778105 0.02807847 -0.03647023
000030 69 8d f2 bb 71 2b 6e bb 5a a5 45 3e 85 b7 88 bd
       -0.0074021113 -0.003634181 0.19301358 -0.066756286
000040 1d 5b ac 3d a4 e0 36 be bd 06 8e bc c9 32 5f 3d
       0.08415816 -0.17859131 -0.017337197 0.054491792
000050 1c 3f a4 3a b6 c3 db bc 26 32 82 bd f2 26 b6 bb
       0.0012531015 -0.02682672 -0.06357221 -0.005558842
000060 7a cc 77 3b 24 62 3f be 8c b5 4a bb 5f 9e 7a 3c
       0.0037811087 -0.18689781 -0.0030930964 0.015296548
000070 10 47 6f bc c8 d3 83 bd 85 9e 62 bc 34 63 11 bc
       -0.014604345 -0.064368784 -0.013831739 -0.0088737495

sequential/dense/BiasAdd/ReadVariableOp/resource f4 [64]
000000 e6 de 0c bc bb 48 4e bc ea 77 dd 3c c2 9c 90 bb
       -0.008598065 -0.0125905825 0.027034719 -0.0044132182
000010 eb 57 18 bc 39 0c 04 bc 5b a3 88 bc de a9 b8 bb
       -0.009298305 -0.008059555 -0.016679456 -0.005635484
000020 b6 d2 97 bd 60 df df bc c3 6f da bd 2c 24 ab 3d
       -0.07413237 -0.027328193 -0.10665848 0.083565086
000030 11 93 11 bc 3b 66 98 bd f2 28 0e bc ef 40 f4 bc
       -0.008885161 -0.07441374 -0.008676754 -0.029816119
000040 1f dc 08 bc db 34 93 bc 93 8d 57 3d 63 08 34 3d
       -0.008353262 -0.01796954 0.05262525 0.04395331
000050 09 03 7f bd df f5 1b bc b2 be bb bd b8 0b 3a bc
       -0.062258754 -0.009519069 -0.091672316 -0.011355333
000060 0e 17 c0 bb f7 be 79 bc c1 e0 0a bd 43 20 c9 bc
       -0.0058621233 -0.0152432835 -0.03390575 -0.024551516
000070 38 0e 9d bc 42 33 95 bc 4c b4 28 bc ef 1e 8e bb
       -0.01917182 -0.018212918 -0.010296892 -0.0043371837
000080 b4 59 a8 bc 2f 4d 25 bc 3e 5d 9a 3b 37 4b 67 bc
       -0.020550586 -0.010089203 0.0047108224 -0.014117054
000090 ae 7c 34 3e f5 e2 f3 bb cf 6c ca bb 2f 42 26 bc
       0.17625687 -0.007442827 -0.006177522 -0.010147615
0000a0 1c 68 35 bc 69 36 c2 bb 09 87 da bc e0 e9 a2 bc
       -0.011072185 -0.0059268964 -0.026675718 -0.01988691
0000b0 ad 88 af bb 0c 90 22 bc cf d8 8f bc bf 40 24 bd
       -0.005356869 -0.009922039 -0.017559437 -0.04010081
0000c0 07 00 1a bc 47 a0 94 bc 9c e7 0e bc 6f 06 22 bd
       -0.009399421 -0.018142832 -0.008722212 -0.039556917
0000d0 d3 6d 33 bd 5b c3 f4 bd 5b e0 1a bc 83 4e ff bb
       -0.04380591 -0.119513236 -0.009452905 -0.0077913417
0000e0 24 7a ff bb 02 10 42 3e 3c 6c 11 bb 64 f3 e8 bc
       -0.0077965427 0.18951419 -0.0022189757 -0.02843637
0000f0 b5 0b c5 bb c0 77 fc bb 64 d1 64 bc 54 25 bd bc
       -0.0060133585 -0.007704705 -0.013965938 -0.023089088

sequential/conv2d_3/BiasAdd/ReadVariableOp/resource f4 [128]
000000 98 48 2b bd 3b 0f de bd 16 4e 70 3d 2f 9a 44 be
       -0.041817278 -0.10842749 0.05866822 -0.19199441
000010 87 5e bd 3c 4e 8d 5f bd a1 c0 ae bc ab 81 2b 3d
       0.023116363 -0.054578118 -0.021332087 0.041871708
000020 51 b5 bd 3d 2f 02 bf 3d 71 6c 26 bc a1 3f 7f bc
       0.09263099 0.09326588 -0.01015769 -0.015579135
000030 3c 86 3a bd cc 52 51 bd f8 d8 d2 bd 99 0c 83 3c
       -0.045538172 -0.051104352 -0.1029529 0.015997218
000040 2a b2 74 3c f8 fa 0e be 06 33 c2 3d a5 b0 02 bd
       0.014935056 -0.13962924 0.09482388 -0.031906743
000050 47 f4 95 bc 46 4b ba bd 90 21 7b bd 73 ee 3b bd
       -0.018304957 -0.090963885 -0.061311305 -0.0458817
000060 aa 75 83 3d cb ff 04 3d a0 23 11 3e 40 b0 84 bd
       0.06418927 0.032470506 0.14173746 -0.064789295
000070 a4 74 a1 bc ce 01 c7 3d 76 d9 40 bc 2d 03 fe 3c
       -0.019708939 0.09717141 -0.011770597 0.031007374
000080 d6 f1 d6 3d 62 86 bc bc d2 78 3e bd e2 29 2c 3d
       0.10495345 -0.023013297 -0.046501942 0.04203213
000090 98 f2 3d be 5a 79 ca bc aa 3e 28 3d 95 43 be bd
       -0.18549573 -0.024716068 0.041075386 -0.09290234
0000a0 eb 05 0c bd d3 9f f2 bd 71 d2 d7 bd dc 91 7a bc
       -0.03418533 -0.1184689 -0.105381854 -0.015293565
0000b0 f1 2e d1 3b 96 a2 4b bd ab 51 b5 bc 8f 86 7f bd
       0.0063837697 -0.0497156 -0.022133669 -0.062384184
0000c0 88 ec 2f bc 6f 8b 67 3d b8 8c 9b bc 3a 02 67 3d
       -0.010737546 0.05652946 -0.018987998 0.056398608
0000d0 ea db 9a bc 37 e6 29 be b9 02 31 bb 59 ec 9c bc
       -0.018903691 -0.16591726 -0.002700968 -0.019155668
0000e0 15 de 18 bd cf 1e 92 bd dc 69 23 bd 24 2a 29 bd
       -0.03732117 -0.071347825 -0.039895877 -0.041299954
0000f0 f3 39 33 3d f0 fb d7 3b 83 99 c2 3d d5 1b 1c bd
       0.043756437 0.0065913126 0.09501936 -0.03811248
000100 de 13 88 3c 50 d7 04 3e d5 88 0e 3d d8 48 84 bd
       0.016611036 0.1297276 0.034798462 -0.06459206
000110 c5 a5 2a bd 1d 51 7d 3d e1 cb 03 3c 98 1c 6f bd
       -0.041661996 0.061844934 0.008044214 -0.05837688
000120 e6 78 be 3d 84 5c 42 bd 65 d1 cd 3d da a8 14 bd
       0.09300403 -0.04745151 0.100497045 -0.036293842
000130 78 98 08 bc 03 3e 49 bd ea de 0a bc 82 34 86 bd
       -0.008337133 -0.049131405 -0.008475998 -0.06552984
000140 1d 3a 27 bc 4c a2 02 3e 09 85 57 3d 53 90 3b bc
       -0.010206726 0.12757224 0.052617107 -0.011447984
000150 bd 45 ae bd 15 3f 95 3d d0 2c 21 3d b0 bb dc 3c
       -0.08509395 0.072874226 0.039349377 0.026944965
000160 cd 41 fd bc 39 fb c1 3d 8e 1a cd 3d 3d b0 d8 bd
       -0.030915165 0.09471745 0.100148305 -0.1058049
000170 19 29 a2 bd 6f 93 05 bd 20 4e be bb 5a d1 64 bc
       -0.07917995 -0.032611307 -0.005807653 -0.013965929
000180 8c 10 00 bc 90 97 e5 bd 30 1e 44 bd 1e 1d db 3d
       -0.007816445 -0.11210549 -0.04788035 0.10698913
000190 51 d3 62 bd 45 87 4a bc e0 45 03 be 93 f9 3e 3d
       -0.05537731 -0.012361352 -0.12819624 0.04662473
0001a0 9e de d9 bc cd 4d 9d bc a8 b1 69 bb c7 96 a5 3c
       -0.02659541 -0.019202137 -0.003565887 0.020213498
0001b0 d7 09 8e 3c d9 e7 33 3e d1 df 33 bd 4a 43 04 be
       0.017338676 0.17568912 -0.04391462 -0.12916294
0001c0 2e 3a 63 3d d4 44 cc bd e9 43 a6 3d 9e e2 11 bd
       0.055475406 -0.099740654 0.081184216 -0.03561651
0001d0 e8 21 e1 3c 4e e9 e4 bc 62 32 51 bd bb 4f 79 bd
       0.027481988 -0.02794328 -0.05107344 -0.060867053
0001e0 9b 4a ce bc 40 d7 85 bc c6 32 49 3c f4 c2 be bd
       -0.025182059 -0.01633799 0.012280172 -0.09314528
0001f0 95 84 65 bd 61 cf 34 bd 51 bb 1a bc 81 cb 54 be
       -0.056034643 -0.044143084 -0.009444074 -0.20780756

sequential/conv2d_2/BiasAdd/ReadVariableOp/resource f4 [64]
000000 4e 0a ac 3d 29 a4 2c 3e 5c 13 4b bd 1b dd 1d 3d
       0.08400403 0.16859497 -0.04957901 0.03854094
000010 b4 5c 64 bd 53 c7 9d bd 5a 4d a1 bd b6 37 04 3d
       -0.05575247 -0.07704034 -0.07876082 0.032279693
000020 e8 7c dd 3d 85 5d a6 bd 71 3d 10 bc 6b 66 89 3b
       0.108148396 -0.08123306 -0.008803711 0.0041931174
000030 ba bd 3a 3d 97 ae 62 bd 5a a1 b6 bc 34 84 bb 3c
       0.045591094 -0.055342283 -0.022293735 0.022890188
000040 29 42 59 bd c5 41 81 3d a1 db 6a bd 07 52 6d bc
       -0.05304161 0.06311373 -0.05733836 -0.014484889
000050 ea 51 00 be 6b ef 25 3d 79 0f ba 3c 2a 22 97 ba
       -0.12531248 0.04051153 0.022712456 -0.0011530567
000060 5a e4 47 bd fd 13 17 bd e1 c6 25 bd 20 7a 96 bd
       -0.048801757 -0.036884297 -0.04047287 -0.07347512
000070 83 aa 1d 3d 64 b2 db bc d9 f5 07 be 3d 48 a0 bd
       0.03849269 -0.026818462 -0.13277377 -0.07826278
000080 ac 3a 9b bd 92 82 42 3d ab 0b d0 3c b6 4d 58 3c
       -0.0757955 0.047487803 0.025396189 0.0132021215
000090 c4 d1 e3 38 60 ef 4f 3b 08 cb 27 bc db ff a3 bd
       0.000108632754 0.0031728372 -0.0102412775 -0.08007785
0000a0 37 04 39 bd 6a 86 7e 3c 6a c5 73 3c ef 54 33 3d
       -0.045170035 0.0155349765 0.01487861 0.04378217
0000b0 c9 ee 2e bd 29 92 26 bd 71 44 30 bd a8 5e 2c 3c
       -0.042708192 -0.040666733 -0.04303402 0.010520615
0000c0 31 2d 90 bd 73 60 91 3c 2d aa 4a bd d6 e1 5c bc
       -0.070398696 0.017746186 -0.0494787 -0.013481578
0000d0 6d c1 06 bd 3e 2e 4d 3d b0 b2 94 bd 6b aa 90 3b
       -0.03289931 0.050092928 -0.072606444 0.0044148467
0000e0 45 b8 5d 3d 7b c9 71 3d 4d 95 7e bb aa b6 e1 3d
       0.05413081 0.059030037 -0.0038846314 0.110211685
0000f0 23 5b 4c bd 21 24 7d 3d 8d a2 e2 bd 88 88 2d 3d
       -0.049891602 0.061802033 -0.1106616 0.042366534

sequential/conv2d_1/BiasAdd/ReadVariableOp/resource f4 [32]
000000 af 11 e8 3d cf fd 29 bd 47 a1 91 bd 8c 6c 1d 3d
       0.11331498 -0.041501816 -0.07110839 0.038433596
000010 52 93 26 bc 97 4a dc bb bc 36 99 3b bb f4 22 bd
       -0.01016696 -0.006722759 0.0046757143 -0.039784174
000020 76 c1 b9 bb 89 2c 72 3c 5a ce c7 bc 76 7f 2a 3d
       -0.0056688143 0.014781126 -0.024390388 0.041625462
000030 93 92 0f bd 4b 49 88 3d 90 bc 01 bd 3c 63 20 be
       -0.035051893 0.066546045 -0.031673968 -0.15662855
000040 28 73 3d ba ce 72 2a 3d 41 89 dd bb 6a 17 84 3d
       -0.00072269375 0.041613393 -0.0067607467 0.064497784
000050 4f 7f aa 3d dd d0 2f 3c 5a e4 a5 bd df 0b aa bd
       0.083250634 0.010730949 -0.08100195 -0.083030455
000060 f8 df c3 bc f5 35 ec bc 1f e5 15 3e 91 41 16 3e
       -0.023910508 -0.028834322 0.14638184 0.14673449
000070 e2 07 4d bb 0b 2b 01 bd f4 76 ff 3d 54 e2 3c bd
       -0.0031285216 -0.03153519 0.124738604 -0.04611428

sequential/conv2d/BiasAdd/ReadVariableOp/resource f4 [16]
000000 9c 2e 8b bd 9c 70 1f 3c 42 00 3c bd 55 f0 dc 3c
       -0.067959994 0.009731438 -0.045898683 0.026970068
000010 3f 7b c6 3a 7d c4 2f be 44 4d 55 3e bd 6d e5 bd
       0.0015142931 -0.17164798 0.20830256 -0.112025715
000020 15 66 9e bc 41 6e f7 3c 17 a4 24 3e 14 37 8a 3e
       -0.019335786 0.03020394 0.1607822 0.26995146
000030 2e c9 d5 3d cf ea 95 bd 40 53 2f 3e b4 d7 12 bd
       0.104387626 -0.07320177 0.17121601 -0.03585024

sequential/dense/MatMul f4 [64, 512]
000000 3e 8e a0 bd 9c 04 a4 bc b0 a5 84 bd 5d b1 51 bd
       -0.078396305 -0.02002173 -0.06476915 -0.051194537
000010 90 e6 b6 3d f3 be 87 bd 73 16 93 3d 3b ca 02 bb
       0.08930695 -0.066282175 0.07182016 -0.0019956965
000020 b0 d2 de bd 1a 56 bf bb d5 f6 ab 3d 55 b3 a9 3c
       -0.10880029 -0.0058391215 0.08396689 0.020715395
000030 80 46 01 3c 28 27 09 3d ac da 8b 3d a6 80 90 bd
       0.007890344 0.033484608 0.06828818 -0.07055788
000040 8f 6f d7 bd 7a 47 46 3d 07 c3 b0 bd 28 85 a8 bd
       -0.10519325 0.04840801 -0.086309485 -0.082285225
000050 99 dd bb bd 3a 44 42 bd b8 24 80 3d 6a dc c9 3d
       -0.09173126 -0.047428347 0.062570035 0.09856494
000060 aa 15 e7 bc d4 52 aa 3c fc d1 6c 3d cc e0 0d 3d
       -0.028208572 0.020791449 0.057817444 0.03463821
000070 5b 4f 6f 3d b6 31 6e 3d af 3d 08 3b 11 8c 77 3d
       0.05842529 0.058152877 0.002078872 0.060436312
000080 38 a6 a7 bc 17 36 77 bd 67 a0 da bc 5d f2 8c 3d
       -0.020465001 -0.06035432 -0.026687814 0.068821646
000090 55 08 0f bd 31 25 3a 3c 4f e1 8d 3d 0d 83 6d bd
       -0.034920055 0.011361406 0.0692774 -0.057986308
0000a0 32 d9 93 3d 00 97 94 bd 33 20 5a bc 74 af 80 3d
       0.07219161 -0.072553635 -0.013313341 0.06283465
0000b0 bd 64 53 3c cd b3 ab 3d dd 24 ab 3d 74 56 23 bd
       0.012902436 0.08383904 0.083566405 -0.03987737
0000c0 4c 71 cb bc 8e b1 33 3d 25 f2 12 bc 33 44 89 3d
       -0.024834298 0.0438705 -0.008968865 0.06702461
0000d0 30 91 19 3d 52 c5 3b bd 2b 4a bd bd c1 1c 8a bd
       0.037491977 -0.045842476 -0.09242662 -0.067437656
0000e0 27 e0 0d bd a7 4b 8d bb 98 9f 01 3c 89 6d a5 bd
       -0.034637596 -0.004311997 0.007911585 -0.08077533
0000f0 52 54 a9 3d 49 ae 95 bd 72 dd 39 bd af ed a0 bd
       0.08268036 -0.07308633 -0.045377202 -0.078578345
000100 a3 8e 0d 3d 5e 67 bf bd b9 9a b7 bd e0 7a 69 bb
       0.034559857 -0.093458876 -0.08965058 -0.0035626218
000110 dc 3d 00 be bf c5 81 3d 88 1e 83 bd 13 aa ec 3b
       -0.12523597 0.06336545 -0.06402308 0.007222423
000120 23 59 54 3c 6c d9 bd bd fc b9 f4 3c 08 e5 fe bc
       0.012960705 -0.092699856 0.02987384 -0.03111507
000130 05 79 83 3d f7 89 48 3c d4 92 1c bc 1c a5 8d bd
       0.06419567 0.012239925 -0.009556491 -0.06916258
000140 2f 7a a3 3b 9d fb a6 3c de 27 39 3d d8 b0 24 3c
       0.0049889307 0.02038365 0.045204036 0.010051928
000150 22 c9 06 bc b1 e6 5c bd 58 8d 55 3d 52 3a 13 bc
       -0.008226665 -0.053930942 0.05213675 -0.008986073
000160 3a 48 1d bd 0a 8d 3a 39 af 8c 30 3d c7 70 f7 bc
       -0.03839896 0.00017790883 0.043102916 -0.030205144
000170 34 6b a0 bd d1 2f b0 3d 9d e3 b4 3d 28 69 b8 bd
       -0.078329474 0.0860287 0.08832476 -0.09004432
000180 a9 7e 99 3a df 7f d1 bd e8 76 35 3d 62 0c 77 3d
       0.0011710721 -0.102294676 0.04430285 0.060314544
000190 d4 5c a5 3d b9 21 2b bd de bb 3d 3c 9d 81 38 bd
       0.08074346 -0.041780207 0.011580436 -0.045045484
0001a0 f0 3e 8c bc 34 10 4b bd a9 20 a8 bd 21 85 88 3b
       -0.017119855 -0.049576 -0.082093544 0.004166261
0001b0 6a 71 b9 3d 5a 4a 9f bc 76 48 73 bd e0 c2 4e 3d
       0.09054835 -0.019444633 -0.059395276 0.050478816
0001c0 f7 84 d3 bd d7 cd 0c 3d c4 06 d7 bd e4 17 a4 bd
       -0.103280954 0.03437599 -0.10499337 -0.08012369
0001d0 a2 31 a4 3d 10 87 93 bd d0 2b 35 bd fb 81 84 bd
       0.08017279 -0.072034955 -0.044231236 -0.06470104
0001e0 70 09 cc bd a3 bf c4 3c 43 e2 80 3d 60 f9 e6 3c
       -0.099627376 0.02401716 0.06293156 0.028195083
0001f0 e0 2d 3b 3d c3 d8 ac bd b3 1f b4 bd ee c8 92 bc
       0.045698047 -0.084397815 -0.08795109 -0.017918076
000200 42 dc 44 bc 6f bf 97 bd 8f f2 8c bc 81 2b 8c bd
       -0.012015404 -0.0740956 -0.017205505 -0.06844235
000210 f1 8a 83 bd e9 01 88 bd 42 16 21 bd 7b a2 50 bd
       -0.06422985 -0.06640989 -0.039327867 -0.050936203
000220 50 ea d2 3c 80 86 2f 3d 4c c8 c7 bc f0 07 d0 3c
       0.025746495 0.04285288 -0.024387501 0.02539441
000230 63 12 a6 3c 27 b2 c4 3c db 88 0d 3d 58 53 8b bc
       0.02027244 0.02401073 0.034554344 -0.017007515
000240 08 37 70 bd d4 7f a9 bc a6 8a 71 3c ba a2 b8 3c
       -0.058646232 -0.020690836 0.014742529 0.022538532
000250 49 f5 9f 3d 16 aa a0 bd 6e 19 fd 3c 2d 33 cc bd
       0.07810456 -0.07844941 0.030895915 -0.099706985
000260 ba ee e0 ba 7e 7c 42 3d 05 b5 38 3b 86 55 8a 3d
       -0.001716099 0.047482006 0.0028184068 0.067545936
000270 4c 75 f2 bc 98 32 72 3c ea 3c ac 3d fb 9a 75 bc
       -0.029596947 0.01478257 0.08410056 -0.0149905635
000280 56 0c 99 bd 96 8a b2 bd e9 5a 73 ba d8 4c 3d 3d
       -0.07473056 -0.087178394 -0.0009283261 0.046215862
000290 fe fd 71 3d cf fc 8a 3d 86 3a c8 bd 44 6d 89 bc
       0.059080116 0.06786501 -0.097767875 -0.016775735
0002a0 27 f7 c6 bd 64 d4 86 bc 64 a0 84 bd 23 99 c2 bd
       -0.09715109 -0.016458698 -0.064759046 -0.09501865
0002b0 57 de 32 bd 98 11 2f bd df b4 42 bd ee 9c a3 3d
       -0.04366907 -0.042741388 -0.047535773 0.07988916
0002c0 82 58 b4 bd 82 68 de bc 81 d3 80 bd 51 3a 85 bd
       -0.08805944 -0.027149443 -0.06290341 -0.065052636
0002d0 27 b4 cf bd 97 7e 97 bd 84 2c c0 3d 21 26 d0 bd
       -0.10141783 -0.07397192 0.09383491 -0.101635225
0002e0 87 1c 5f bd a9 48 c2 bd fb 65 93 3d ca 78 06 3c
       -0.054470565 -0.09486515 0.071971856 0.008207509
0002f0 89 2e 81 3d 39 7b 6d 3c bc 01 5a 3d 87 a1 60 3d
       0.06307704 0.014494711 0.05322431 0.054841544
000300 aa 08 91 bc 40 10 9e 3d b2 95 96 3d e0 93 8c bb
       -0.017704327 0.07717943 0.07352771 -0.004290089
000310 d0 67 2d 3c 36 dd 5b bd 63 c7 d3 3c 83 c5 62 bd
       0.010583833 -0.05367776 0.025851911 -0.055364143
000320 4c 96 a6 3d 51 86 73 3d 29 57 92 bb 79 45 77 3d
       0.081341356 0.059454266 -0.0044659567 0.06036899
000330 f6 0f 51 bc 21 bc 6d bd 62 62 ce bc a4 0f ae 3d
       -0.012760153 -0.05804074 -0.025193397 0.08499077
000340 fc 17 a4 3d 83 f9 5e 3d d1 fe d5 bd 85 f8 6d 3d
       0.08012387 0.05443717 -0.10448993 0.058098335
000350 a6 09 f7 bd 8f dd 8c bd 65 05 cb bd b6 ab 58 bd
       -0.12062387 -0.068781964 -0.09913138 -0.05289813
000360 0f a4 3c 3d 5c c8 ae 3d 3b 80 9b bd 3d 94 25 3d
       0.046054896 0.08534309 -0.075928174 0.040424574
000370 d6 93 c0 bc 5f a0 83 bc d9 ca cc bd 14 2d 55 bd
       -0.023507994 -0.016067682 -0.099996276 -0.052044943
000380 a5 e5 4f 3d 99 f0 7a bd 1c ad 9f 3d c2 81 3a bd
       0.050756115 -0.061264608 0.0779669 -0.045533903
000390 94 95 8c 3d 9d eb 8b 3c 2e c6 a9 3d 85 98 aa 3d
       0.06864467 0.017080123 0.08289753 0.08329872
0003a0 6f ed c6 3d 34 e5 ab 3b ca 38 5b 3b ba 25 b8 3d
       0.097132556 0.005245829 0.0033450597 0.08991571
0003b0 d6 20 91 bd e0 d8 62 3d 97 90 82 bd 11 2e a3 bd
       -0.07086341 0.05538261 -0.063752346 -0.07967771
0003c0 5b 91 a2 3d 81 8a 10 bd 83 75 df 3c ef ab 1d bd
       0.079378806 -0.035288338 0.027277714 -0.038494047
0003d0 2b f3 2d 3c 80 c4 4b bb 90 b4 f4 3c 73 10 97 bd
       0.010617058 -0.0031092465 0.029871255 -0.07376184
0003e0 35 d6 18 3c 0b af 5c 3c 64 34 9b 3d a0 1c 8f 3d
       0.009328415 0.013469468 0.07578352 0.06987882
0003f0 08 e6 aa bc 62 ee b4 bd 99 1f 30 3d 84 fa b9 bc
       -0.02086164 -0.088345304 0.042998884 -0.022702463

sequential/dense_1/MatMul f4 [32, 64]
000000 43 a5 41 3e a0 4d 50 3e 63 4f f6 3c b2 56 6b 3e
       0.18910699 0.20342112 0.030067151 0.2298229
000010 a0 11 0a 3e 92 e7 b4 b9 d8 ca 51 3e 8e 19 36 3e
       0.13483286 -0.0003450481 0.20487535 0.17783186
000020 6a ac a9 3d 3e 3a 6d be 1c a3 37 3e bd 94 8e bd
       0.082848385 -0.23166749 0.17933315 -0.06961963
000030 38 20 02 3e c1 4d e8 bd b3 5e 2d be 95 e3 3f 3e
       0.12707603 -0.113429554 -0.16930656 0.1873916
000040 87 92 ec 3d e0 16 f2 bd 85 f8 9d bc 74 3c 76 be
       0.115513854 -0.11820769 -0.019283542 -0.24046499
000050 ad 99 1c 3e b3 2b 39 3e db fe 71 be 28 43 0c be
       0.15292998 0.18083076 -0.23632376 -0.13697493
000060 4e 65 37 3c 42 a6 6f ba 4d 6b ff 3d fe 33 d0 bc
       0.0111935865 -0.0009141901 0.12471638 -0.025415417
000070 e0 87 e8 bd 00 c5 f6 3b 49 ef 8c 3d 28 78 90 bd
       -0.11354041 0.0075308084 0.068815775 -0.07054168
000080 48 33 78 be 69 0e 8e 3d 12 22 43 be 90 c1 71 3e
       -0.24238312 0.06936342 -0.19055966 0.23608994
000090 dd 40 58 3d 28 44 27 3e 63 0b db 3d 09 27 3f 3e
       0.052796233 0.16334593 0.10695531 0.18667234
0000a0 cb 14 5b bb 96 03 36 bd ee a9 07 be 00 de bf bb
       -0.0033429142 -0.044437014 -0.13248417 -0.005855322
0000b0 84 f4 77 3d dd 40 1d 3e 80 0d 7f 3e 05 6e 36 be
       0.060535923 0.15356775 0.24907494 -0.17815407
0000c0 c3 7e 12 3e 1f 85 fe 3d 58 32 84 bd e2 49 53 3c
       0.14306168 0.124277346 -0.06454915 0.012896033
0000d0 2e bf 33 bd 6f e7 8c 3d b4 98 59 be b3 7d de 3d
       -0.043883495 0.0688008 -0.21249658 0.10863819
0000e0 bc a5 66 3e 73 bb 47 be 11 6f 87 bd 46 32 88 bd
       0.2252416 -0.195051 -0.06612981 -0.06650214
0000f0 dc 14 5f bd 25 4a 20 3e bb 4d 1f 3e 00 23 01 3d
       -0.054463252 0.15653284 0.15556996 0.03152752
000100 a0 61 6f be c2 14 08 be cb d9 e8 3c de 5c ea bd
       -0.23377085 -0.13289168 0.028424164 -0.11443494
000110 d0 31 54 be f4 f4 47 3e d0 78 f8 bd 77 e9 06 3e
       -0.20722127 0.19527036 -0.12132418 0.13174997
000120 a0 7c 5d 3e fd 40 48 be 20 44 0e be 3c fd 2a bd
       0.21629572 -0.19556041 -0.13893175 -0.04174541
000130 d4 62 1b be 31 5c 27 3d 38 08 48 3e 00 17 01 bb
       -0.15174419 0.040859405 0.19534385 -0.0019697547
000140 b8 8d 47 be c4 1d 76 3e bb 1a a0 bd cd 37 7d be
       -0.19487655 0.24034792 -0.078175984 -0.24728318
000150 1b 4a a4 3d e9 2a 3b be 54 5d 62 3d d0 26 78 3d
       0.08021947 -0.18278088 0.055264786 0.06058389
000160 d2 2d f9 3d e4 44 21 3e 4d 24 90 3d 9d de 21 be
       0.12166943 0.15748936 0.07038174 -0.15807576
000170 00 40 42 3a e8 c1 62 3e 16 9c 93 bd f5 d0 b3 bd
       0.00074100494 0.22144282 -0.072075054 -0.0878009
000180 38 2f c6 3d 28 f1 f3 3d 8c 72 82 bc 79 f7 76 3e
       0.09676975 0.11911231 -0.01592376 0.24117841
000190 71 8b 74 bd 94 eb 25 be 20 13 c6 bd 46 2c 44 3e
       -0.059703294 -0.16203147 -0.096716166 0.19157514
0001a0 c8 ab 1f be bd 90 ea bc e0 92 64 bd 00 06 a3 bd
       -0.15592873 -0.02863347 -0.055804133 -0.07960129
0001b0 ea 52 26 3e dd f0 65 3e c8 62 c3 bd 5f 4e 23 be
       0.16242567 0.22455163 -0.095403254 -0.15947865
0001c0 04 8c 7a bc 40 9d 76 bc 02 fd 7c be 7e 1e 3b be
       -0.015292171 -0.01505214 -0.2470589 -0.1827335
0001d0 e7 ea ff 3d aa cb 4f be 74 73 3a be 24 5d 63 be
       0.12495976 -0.20292535 -0.18208104 -0.22203499
0001e0 84 ee 00 3e 1a 14 7e 3b 16 0f ce bd e0 14 e0 bd
       0.12590986 0.0038769306 -0.10061471 -0.109414816
0001f0 80 ac 05 bc c6 9a a2 bd 87 29 1b be 00 2c 7c bb
       -0.008158803 -0.07939677 -0.1515256 -0.0038478374
000200 f5 54 d5 3d 04 0b 42 3e e0 ac 0c 3e 9b 67 9d 3d
       0.10416595 0.18949515 0.13737822 0.07685777
000210 60 b1 0d 3e 12 90 60 be 67 fb 76 be 9e 9a 0c 3e
       0.13837194 -0.21929958 -0.2411934 0.13730857
000220 77 aa 89 bd 6d 8c 16 be 1b 3d 3b 3e 8f 50 ea bb
       -0.06721967 -0.14702006 0.18285029 -0.0071507166
000230 0c 8c 0d 3e ea d9 18 3e 18 c3 f9 3c 5b 66 1a 3e
       0.13822955 0.14926878 0.030488536 0.15078108
000240 2c 46 7a 3e 78 d0 b7 3d 0e be 70 be a3 3e 77 bc
       0.24440831 0.08975309 -0.2351 -0.015090617
000250 48 aa f9 3d 9b 38 23 3e 94 73 78 be 71 1f 9d 3d
       0.12190682 0.15939562 -0.2426284 0.076720126
000260 bf 61 44 3e 26 9e 99 3c e9 e4 e5 bd c5 dd 13 3e
       0.19177912 0.018752169 -0.11225302 0.14440067
000270 3d e1 85 3c f7 00 19 3e 22 d7 c1 bd 14 62 42 3e
       0.016342754 0.14941774 -0.094648615 0.18982726
000280 80 77 16 3e 63 b9 8f bd 37 2c a7 3e 0e a5 00 3e
       0.14694023 -0.070177816 0.3265092 0.12562963
000290 b6 90 09 bd 93 98 13 bb 8c 2e 31 be c4 82 61 3d
       -0.033585273 -0.0022521361 -0.17302912 0.05505635
0002a0 f1 21 d0 3d 9c 78 56 3e 44 57 97 3d a1 3a f5 bd
       0.10162724 0.20944446 0.073896915 -0.11974073
0002b0 e1 69 a9 3d 6b 88 66 3e 77 44 93 3d 83 b4 c7 bd
       0.08272148 0.22512977 0.07190793 -0.09751227
0002c0 40 8d 28 be 5e f5 1e bd f2 df 62 be a0 38 a8 3b
       -0.16460133 -0.03880822 -0.22155741 0.0051337034
0002d0 58 73 aa bc 31 2c c3 bd 2e a2 4c be d1 4e 8e bd
       -0.020806953 -0.09529913 -0.19983742 -0.06948627
0002e0 c1 61 94 bd 50 58 5b be fc dd 75 3e a3 78 0b be
       -0.072452076 -0.21420407 0.24010462 -0.13620238
0002f0 c1 07 33 be a0 44 81 3e b8 4d 98 bd 37 cf d6 3c
       -0.17483427 0.2524767 -0.07436699 0.026221855
000300 48 f8 0a bc 12 b3 81 3d 3a 07 02 be 09 ce c0 3c
       -0.008482046 0.06332983 -0.12698069 0.023535745
000310 30 96 24 3e 40 18 3f bd 40 0d 2b be 6e 20 4b bc
       0.16072917 -0.046653986 -0.16704273 -0.012397869
000320 19 82 d7 bd 23 30 75 bd cc 95 23 3e 31 54 98 bd
       -0.10522861 -0.05986036 0.15975112 -0.07437933
000330 08 ca 21 be 61 38 df 3a 7c 04 48 be 78 93 76 3e
       -0.15799725 0.0017030352 -0.1953296 0.24079692
000340 a4 79 5d be ec 65 52 be 98 2e ff bd dc 33 37 be
       -0.21628433 -0.20546693 -0.12460059 -0.17890877
000350 66 66 70 be c4 c9 c4 bd d2 2f 53 be 98 34 9e 3d
       -0.23476562 -0.09608796 -0.20623711 0.07724875
000360 86 13 2a bd 22 d9 f7 3c 35 c6 c0 3d da 86 c9 3d
       -0.041522525 0.030254904 0.09412805 0.09840174
000370 f4 4a 5a be 40 fe 21 be e4 2e 3c be 20 fb f8 bd
       -0.21317655 -0.15819645 -0.18377262 -0.12157273
000380 09 1e c1 3d 60 d1 64 bd 38 bd 10 3e 55 29 f5 3d
       0.09429557 -0.055863738 0.14134681 0.11970774
000390 41 f4 53 be c8 54 15 3e 80 09 56 be 7f 50 d9 bc
       -0.20698644 0.14583123 -0.20902061 -0.026527641
0003a0 97 9a b5 3c ca 77 3d be 5c 43 0a 3e b0 36 b7 3d
       0.02216844 -0.18502727 0.13502258 0.08945978
0003b0 82 13 45 3e 6b 69 21 3e 9c 48 0f be ce e4 47 3e
       0.19245723 0.1576287 -0.13992542 0.19520876
0003c0 05 e7 05 be 9c 34 5f be a0 3b 09 3c 98 ae ff bd
       -0.13076408 -0.21797413 0.008376032 -0.12484473
0003d0 e4 01 24 bd 5b 4b 09 bd a8 ac 5f be e8 e4 77 be
       -0.040040866 -0.03351913 -0.21843207 -0.24208415
0003e0 60 22 30 3e af 6c 11 bd 29 f4 95 bd 11 c5 5e 3e
       0.17200613 -0.03550404 -0.073219605 0.21754862
0003f0 d0 82 ca bd 88 c3 c1 3d 55 e8 91 3c d3 68 24 3e
       -0.09888232 0.09461123 0.01781098 0.16055612

sequential/dense_2/MatMul f4 [7, 32]
000000 bd 3a 4e 3e e5 39 bb be 6c 76 2f 3c 85 1f 54 3e
       0.20139594 -0.36567608 0.010709386 0.20715149
000010 6a 80 84 be 00 b2 26 3e 68 fe 54 be ba 1a d4 3d
       -0.25879222 0.16278839 -0.20800173 0.1035666
000020 59 f4 d2 be 2c ac 97 be 2a 7c 83 3e 86 9f ff 3d
       -0.41202047 -0.29623544 0.25680667 0.124815986
000030 c7 46 85 3d c6 ae 3b 3e 05 6f e6 bd 6e 34 04 3e
       0.0650764 0.1832839 -0.11251644 0.12910625
000040 3a b9 67 bd 9a 55 73 bd 90 c4 c9 bd ee b2 ed 3d
       -0.05657313 -0.059407808 -0.098519444 0.11606394
000050 31 3a fb 3d 0e eb 51 3e 18 31 b7 3e b2 e5 cd bd
       0.122669585 0.20499822 0.35779643 -0.100535765
000060 44 73 38 3e 6c 08 f8 bb ff 1c f2 bd aa 9a 98 3e
       0.1801272 -0.0075693633 -0.11821937 0.298055
000070 22 0e 1c bd 82 76 19 3e 3b 16 a8 be 83 e7 f9 bb
       -0.038099416 0.14986613 -0.3282946 -0.0076264753
000080 47 ce 56 3e c6 da 33 be e9 8b d8 3d 6f c2 b1 ba
       0.20977126 -0.17563924 0.10573561 -0.0013561974
000090 ea 89 55 be 7d e0 88 bd b8 fd cf bd 17 07 69 3e
       -0.20853391 -0.06683443 -0.10155815 0.22756611
0000a0 ef 38 a4 3c 48 e6 84 be 42 63 cf be 70 9c 0b 3e
       0.02004668 -0.2595694 -0.40505415 0.13633895
0000b0 91 bd 94 be bf a1 ab 3d 98 b5 08 3e ee f4 00 be
       -0.29050878 0.0838046 0.13350523 -0.12593433
0000c0 ad df af bd 9c 86 3b 3e 0a 86 a7 be ed 4b bf 3e
       -0.08587585 0.18313068 -0.3271945 0.37362614
0000d0 2b 62 1b be 0a c4 3e 3e 29 d5 a1 3e 34 48 84 3d
       -0.15174167 0.1862947 0.3160794 0.06459084
0000e0 e5 fb 41 be 09 c0 bc be 12 81 00 3e a0 e4 94 be
       -0.18943746 -0.3686526 0.12549236 -0.29080677
0000f0 54 49 a0 3e d6 ea 9a bd f5 d7 da bd 36 88 63 3e
       0.31305945 -0.07564323 -0.10685722 0.22219929
000100 be 5f 71 3e 35 85 93 be e4 8e 3d 3e 4d b4 b9 3d
       0.23571679 -0.28812566 0.1851154 0.09067593
000110 bf 23 da bd 59 58 9f be b6 57 ca 3b 87 4e 98 be
       -0.10651349 -0.3112209 0.0061750067 -0.29747412
000120 1d df af be f7 9d 9c 3e bc b7 db 3e c1 d8 ad be
       -0.3434991 0.30589268 0.42913616 -0.33954433
000130 df d1 c1 bd a9 bd f1 3d 51 51 d9 3e e4 fe a9 be
       -0.09463858 0.11803753 0.42444852 -0.3320228
000140 95 60 d2 3e 58 6f 86 be 8f ca 45 be 36 11 8e bd
       0.4108931 -0.26256824 -0.19315551 -0.069368765
000150 1a ba 5d be b6 e1 58 3e 14 4e 28 bd e5 3f c8 3d
       -0.21653023 0.21179852 -0.041090086 0.09777812
000160 c7 54 8c 3e 9f be 90 be 85 d2 6e bd 8e 50 75 3e
       0.2740843 -0.28270432 -0.058306236 0.2395651
000170 a4 71 6e 3e c9 d9 1c be 5e 81 51 bd da 94 a4 3e
       0.23285538 -0.15317453 -0.051148765 0.32144815
000180 87 59 b6 3e 48 21 91 be 71 51 88 be 53 0d 22 3d
       0.3561518 -0.28345704 -0.26624635 0.03956349
000190 21 56 8e 3e b0 23 bf 3e 06 dd d2 be 65 df 4d be
       0.27800086 0.37331915 -0.41184253 -0.2010475
0001a0 c3 21 f6 bd ad fc a1 3e 07 c6 17 3e a6 9d 43 be
       -0.12018158 0.3163809 0.14821635 -0.19103107
0001b0 f5 02 1f 3e 00 47 70 3e cc 71 94 3c 52 8a e2 be
       0.15528472 0.23464584 0.018120669 -0.44246155
0001c0 ed 7b 47 3e 92 3f c0 3e 5c 92 a3 bd 4c 56 d4 3c
       0.19480868 0.375485 -0.079869 0.025920056
0001d0 e1 e0 89 be 53 b8 0e 3e 66 07 94 3e 4f 2c af bd
       -0.2692938 0.13937502 0.28911895 -0.08553373
0001e0 f6 1a 9f be e0 1b 95 3e 5e b0 88 be 79 d2 8b be
       -0.31075257 0.2912283 -0.26697057 -0.27309015
0001f0 64 58 b9 be e4 4b d4 be e1 f9 6f be b5 61 8b 3d
       -0.3620025 -0.4146415 -0.23435165 0.068057455
000200 1c 93 84 3e f2 ee bd 3e d6 5f 4a 3e 86 f0 84 be
       0.25893486 0.37096363 0.19763121 -0.25964755
000210 95 76 fe 3e 0b fb 16 bd 36 7f b5 3e d7 0c ac bd
       0.49699846 -0.036860507 0.35448617 -0.084008865
000220 d8 cf 1d 3d dc 4d 70 be 28 d4 e5 3d 4f 9d 44 3c
       0.038528293 -0.23467201 0.11222106 0.012000396
000230 b8 d4 1d ba 2a 4f 88 be b9 e4 c1 be 03 a8 0a 3e
       -0.0006020772 -0.26622897 -0.37869814 0.13540654
000240 0b e2 57 3e 1c 73 7d bd 55 46 b3 3e a1 77 6e be
       0.21082322 -0.061877355 0.35014597 -0.23287822
000250 8c 71 ac be c9 e6 e8 3d c2 3d 1a bd fb 4a c1 3e
       -0.3368038 0.11372144 -0.037656553 0.37752518
000260 51 af d4 be b1 cd 8d 3e e6 1d 8f be aa 86 1d bd
       -0.41540006 0.27695993 -0.27952498 -0.038458504
000270 f7 6e 8d be 9b 3d 64 3e d1 73 a0 3e c4 6e d1 3c
       -0.27623722 0.22289126 0.3133836 0.025565512
000280 83 98 a6 be 5c 5d 8f 3e 7d cc 5d 3e 33 8b 8f 3c
       -0.32538232 0.28000915 0.21660037 0.01752243
000290 a9 e6 04 bf 73 06 5e 3d c8 a8 55 3e 6b 2a 34 3d
       -0.5191446 0.05420537 0.20865166 0.043985765
0002a0 bc 2e 4c be 86 67 3e 3e 3c 88 af 3d 3c db b8 3e
       -0.19939703 0.18594179 0.085709065 0.36104763
0002b0 8b 81 96 be 0e 9c 95 3e cf 33 db bd 88 fd 2c be
       -0.29395708 0.29220623 -0.10703241 -0.1689359
0002c0 2a d5 41 3e 72 9b f8 3d 71 3d b8 3e 30 7f db be
       0.18928972 0.12139024 0.35984376 -0.42870474
0002d0 a8 a0 2d 3e 1f 61 8c 3e 95 91 c1 3e 38 9d aa 3e
       0.16955817 0.27417848 0.37806383 0.33323073
0002e0 ec bc 83 3e 19 3b 97 3d cf c4 a4 be 0c 1c a8 be
       0.25730073 0.07384319 -0.32181403 -0.32833898
0002f0 3e bd 39 3e 27 4c ef 3e f5 1c 23 be 74 75 08 bd
       0.18138596 0.46737787 -0.15929015 -0.033315137
000300 af d2 31 be 14 d6 94 3d 11 92 9c 3e 1a ca ba 3d
       -0.17365526 0.07267395 0.3058019 0.09120579
000310 2d 1c be be 5f f6 a9 be 51 09 29 3e 2d ed 15 3d
       -0.3713087 -0.3319578 0.1650746 0.03660314
000320 e9 43 55 3d ce df 89 3d 89 7c 7e be 19 b5 64 bd
       0.052066717 0.067321405 -0.24852194 -0.05583677
000330 09 0b d8 bd 97 ff bd 3e 6a 31 f6 be d8 fe e3 bd
       -0.1054898 0.37109062 -0.48084575 -0.11132592
000340 64 b8 d9 be ff 69 ad 3d 1f 41 3f be 31 50 d1 3e
       -0.4252349 0.08467483 -0.18677185 0.40881494
000350 08 b9 87 be b0 bc 3c 3d d4 51 90 be 0d 2a 71 be
       -0.26508355 0.046078384 -0.2818743 -0.23551197
000360 1c f3 bc 3d 02 30 f9 3e c8 82 b8 3e 2e e1 cc 3e
       0.09226057 0.4866944 0.36037278 0.40015548
000370 3d 53 27 be 9a ab 82 be 48 45 e5 bd d7 4f 0d 3e
       -0.16340347 -0.25521547 -0.11194855 0.13799988

sequential/conv2d/Conv2D f4 [16, 3, 3, 3]
000000 56 95 38 be 79 84 3b be 1f 16 ad bd 7a 85 24 3e
       -0.18025717 -0.18312253 -0.08451485 0.16066542
000010 c4 9b fd bc fc a7 a8 3d 07 d7 7a 3d 01 53 35 bd
       -0.030958064 0.082351655 0.061240222 -0.04426861
000020 65 27 54 3e 9d 63 66 bd dd 40 50 3c ac 35 e3 bd
       0.20718153 -0.056247342 0.012710777 -0.110942215
000030 c8 3a f6 bd db 1b 54 bd 4a 70 33 be f3 ac 26 3e
       -0.120229304 -0.051784378 -0.17523304 0.16276912
000040 95 56 c8 bd 18 b9 51 bc 6e 7e 17 bd 1c a0 23 bd
       -0.09782139 -0.012800477 -0.036985807 -0.039947614
000050 01 36 9c 3d fa 69 d3 bc bb be f8 3d 4d 72 61 3e
       0.07627488 -0.02580737 0.12145754 0.22016259
000060 68 e2 dc bc 79 28 ba 3d a5 03 64 3e ee fa 4b 3e
       -0.026963428 0.09089751 0.22267015 0.19919941
000070 da 55 33 3e fd d8 b0 bd 42 0b 04 be ec 37 e1 3d
       0.17513219 -0.08635137 -0.1289492 0.109969944
000080 77 19 6d be da 36 57 3b be 25 8c bd ea 39 8b bd
       -0.23154245 0.003283909 -0.06843136 -0.067981556
000090 95 21 e2 bd 44 f9 14 3e 97 ae 9c 3d 09 84 50 be
       -0.110415615 0.14548212 0.07650488 -0.20362867
0000a0 74 83 23 3d 47 64 45 be b8 86 15 3e a9 44 99 3d
       0.039920285 -0.19276534 0.14602172 0.07483799
0000b0 63 1b 34 be 69 3f 9e bd eb 5a dc 3c 20 e5 13 3e
       -0.17588572 -0.07726938 0.026898822 0.14442873
0000c0 17 02 2b 3e 24 bf d1 bd 46 75 f3 3c 39 2b 24 3d
       0.16700016 -0.10241535 0.029719006 0.040080283
0000d0 f3 6b d0 bc 86 1d 15 3e 22 10 f4 bc 89 61 29 3e
       -0.0254421 0.14562044 -0.029792849 0.16541113
0000e0 c1 49 88 3d dc 8c 18 3e 93 c6 cf bd 2d 28 ca bd
       0.066546924 0.14897484 -0.10145297 -0.09870944
0000f0 6f ea 49 bb 12 56 69 3c 0a a0 97 bd c4 50 ca 3d
       -0.00308099 0.014241712 -0.07403572 0.09878686
000100 c5 6b fe 3d c6 3c 9a bd 3e 9c 00 bd 97 1c 91 bd
       0.12422899 -0.07531123 -0.031399004 -0.07085531
000110 20 69 4b be 3d 3f 02 be b7 0a 22 3e 0b 3d d1 3c
       -0.19864321 -0.12719436 0.158244 0.025541803
000120 bb 3e e0 3d f3 21 ff 3d 50 36 7a 3d 4e 66 c8 bd
       0.10949465 0.12457647 0.061086953 -0.09785138
000130 6e 8a 5a bd 97 f5 5f be cb d3 5c bd de 6f 62 be
       -0.053354673 -0.21871029 -0.05391292 -0.22112986
000140 15 57 10 be 90 cd 32 be 1f e5 d0 3d 35 82 d3 3c
       -0.14095719 -0.17461228 0.101999514 0.025818923
000150 2d ec 44 be 67 de 55 bd 3e e4 00 3e 4f d4 e3 3d
       -0.19230719 -0.052214053 0.12587067 0.11124479
000160 94 5c be bc fb a5 ca b9 53 fb 2f be 3f 70 aa bc
       -0.023237504 -0.00038652107 -0.17185716 -0.020805476
000170 1d b6 a5 3d 2f f2 1b 3d 67 d4 10 3e d7 8e 13 be
       0.08091376 0.03807276 0.14143525 -0.14409958
000180 41 39 40 3e 62 93 23 be 07 c6 81 bb 28 cb 02 be
       0.1877184 -0.15974191 -0.0039603743 -0.1277281
000190 f4 52 02 be 38 36 b0 bd 66 b2 26 3d 6d 86 8a bd
       -0.12726957 -0.086040914 0.040697478 -0.06763921
0001a0 ea 87 06 3e af 53 97 bd 19 0b 7b 3d c6 bf d6 3d
       0.13137785 -0.07389008 0.06128988 0.10485797
0001b0 dc ca e8 ba 28 99 5e be f4 ed 94 3d 86 48 32 3e
       -0.0017760652 -0.21738112 0.072719485 0.17410478
0001c0 c8 4d 64 be af 97 b0 bd 30 0e a8 bc 27 e6 1c be
       -0.22295296 -0.08622681 -0.020514578 -0.15322171
0001d0 3e 97 06 3e 11 ac dd bc d2 df 95 bc 0f 95 0c 3e
       0.13143632 -0.027059587 -0.018295202 0.13728736
0001e0 cc 8e 43 bd ea bb 32 be ff 2a f4 bd cd cb 48 3e
       -0.047743604 -0.17454496 -0.11922263 0.19608994
0001f0 b7 ee 4c be fb ff bf bd e3 89 3f 3b c4 50 7a bd
       -0.20012937 -0.09374996 0.0029226474 -0.06111218
000200 be 89 1b 3e ec 8b 3b 3e 08 33 0d be 80 38 9c 3d
       0.15189263 0.18315095 -0.13788998 0.07627964
000210 bd e0 cb 3c a7 b3 ba 3d 76 f6 73 3b 2c 9c 0b 3e
       0.024887437 0.09116297 0.003722576 0.13633794
000220 38 d5 33 3e a0 2b 81 bd a7 06 18 3e 92 90 0d 3e
       0.17561805 -0.06307149 0.14846288 0.1382468
000230 2d d0 10 be 82 1e f6 3d cf 67 1c 3e ed ba 18 3e
       -0.14141913 0.12017538 0.15273975 0.14915057
000240 51 26 11 3e 55 35 31 bd d6 2c 4b be 92 01 27 3e
       0.14174773 -0.043263752 -0.19841322 0.16309193
000250 e2 ac 1d be aa 3a 57 be 46 5f 4e be 65 59 e3 3b
       -0.15397981 -0.21018472 -0.20153531 0.006938147
000260 28 64 c4 3d 50 78 86 3d 82 5e e4 3d 9d b3 2c 3c
       0.09589416 0.065659165 0.111508384 0.01054087
000270 86 9c 0d 3e 2b 0a 22 be 05 9c 48 be 35 58 3d be
       0.1382924 -0.15824191 -0.19590767 -0.1849068
000280 10 87 5d bd 07 58 f1 bd 1f fa 41 3c 3b e2 2b bd
       -0.054083884 -0.11784368 0.011839419 -0.041963797
000290 a5 97 e2 3d 35 84 cd bd 75 da 0b 3e 90 5b 27 3e
       0.1106408 -0.10034982 0.13657553 0.16343522
0002a0 de d0 e1 bd 67 33 5c 3d 3c ea d3 3d 48 1a e1 3c
       -0.110261664 0.05375996 0.10347411 0.027478352
0002b0 d0 84 6e bc c7 ad b7 3d d4 fc 3a be 5b 5d 6d 3d
       -0.014558032 0.08968692 -0.18260509 0.05795036
0002c0 2a 9d aa bb 86 7d bc bd 9c 0d dc bd 25 14 df bc
       -0.0052067237 -0.09203629 -0.10744783 -0.027231285
0002d0 ca 6d fe 3d b8 39 f9 3b 76 af 80 bc cd b7 48 be
       0.12423284 0.0076057576 -0.015708666 -0.19601364
0002e0 71 f6 d7 bd 80 5f 4e 3d 7b f9 88 bd 6d 69 a8 bc
       -0.10545052 0.050384045 -0.066882096 -0.020558083
0002f0 6b cf 05 3e 65 d6 38 3e db 18 be 3d 5a 69 cf 3d
       0.13067405 0.18050535 0.092820846 0.10127516
000300 ff 03 89 3c 34 67 17 3e aa 42 31 3e b6 61 b7 3d
       0.016725538 0.14785463 0.17310587 0.08954184
000310 7d 2f ac 3d 3f 8b 03 bd 8d 19 36 bd 49 17 e6 3d
       0.08407495 -0.032115217 -0.04445796 0.1123491
000320 04 8b c4 bd 7d 4c 06 bd 30 3b b9 bd 65 04 33 be
       -0.095968276 -0.03278779 -0.09044492 -0.17482145
000330 e6 de 18 be 4e d3 2f be 03 d6 ab bd 5f 61 3c 3d
       -0.14928779 -0.1717045 -0.08390429 0.045991298
000340 6f b5 4e 3e b4 8f 99 bd b4 57 c0 3d 5a b9 af bd
       0.20186399 -0.07498112 0.09391728 -0.08580275
000350 ec 09 6c bd a1 10 4e bc dd ac 88 bd df 54 f7 bd
       -0.05762665 -0.012577207 -0.06673596 -0.12076735
000360 82 6b bf 3d a9 4f 51 3e 8c a9 64 3c 1c 38 0e be
       0.09346677 0.20440544 0.013956439 -0.13888592
000370 69 9d 3a 3e c2 6d 37 be ec a8 22 be 46 30 b6 3b
       0.1822411 -0.17912963 -0.15884751 0.005559954
000380 c7 7b d1 3d ab 56 25 be bc a7 42 bd a1 ae b4 bc
       0.10228687 -0.16146342 -0.047523245 -0.022055926
000390 35 bc 12 3e 7c 7a 88 bc 1b 9e 73 be 54 f2 0c be
       0.14329608 -0.016659968 -0.23790781 -0.13764316
0003a0 70 db 53 3e 9c 6b 02 3e e6 28 aa 3b 46 fb 15 3e
       0.20689178 0.12736362 0.0051928638 0.14646634
0003b0 aa 21 5b be 2a e7 f6 bc 53 6f 08 3d f7 93 ec 3b
       -0.2139956 -0.030139524 0.033309292 0.007219787
0003c0 79 9b 85 3d fc 48 a4 3d d1 b5 b0 3d 6c 20 e6 3d
       0.06523795 0.08021733 0.08628429 0.11236653
0003d0 c8 4e d1 3d 8d 97 9d bc 60 7b 5d bd 46 18 13 be
       0.102201045 -0.019237304 -0.054072738 -0.14364728
0003e0 bb 8b 8b 3d 75 e4 0b 3e 62 1d d8 bd 63 87 d3 3d
       0.06813761 0.13661368 -0.10552479 0.10328557
0003f0 bb 1c 55 bd 22 94 52 3b a2 71 65 be 9c 52 22 3d
       -0.052029353 0.003213175 -0.22406629 0.039629564

sequential/conv2d_1/Conv2D f4 [32, 3, 3, 16]
000000 7c 9d 29 3d 59 78 ca bd a7 68 07 3e 9b f2 a1 bd
       0.041409954 -0.09886236 0.13223515 -0.079076014
000010 b0 cb 41 be 3d 3b 8e bc bb 81 28 3e c3 94 c3 3d
       -0.18925357 -0.017362231 0.16455738 0.095498584
000020 33 e1 91 3d 44 8d a7 bd e0 92 eb bc 71 7c 0c 3d
       0.071230315 -0.08181241 -0.028756559 0.034298364
000030 fb 0a b6 3d 41 03 f2 3c f7 78 64 3d 5b 15 05 be
       0.08888813 0.029542567 0.055779424 -0.12996428
000040 ef 51 a7 bc 00 9c 78 bd e2 3d 9a 3c 38 cf ba 3d
       -0.020424811 -0.06069565 0.018828336 0.09121555
000050 78 a1 5d 3c 2f 67 d6 3d eb 56 14 3e b8 39 6d 3d
       0.013527267 0.104688995 0.14486282 0.057916373
000060 ba cc df bd 86 aa 9e 3c e8 e4 33 be 31 e5 16 bb
       -0.1092772 0.019368421 -0.1756779 -0.0023024792
000070 ef 25 e7 bd 62 19 0c 3e e5 c9 51 3d 89 43 04 3d
       -0.11286532 0.13681558 0.051217932 0.03229097
000080 86 bb 07 3e 2b 75 6b be 3d d4 e4 3d 91 7a 15 3d
       0.13255128 -0.22993915 0.11173294 0.03649384
000090 50 8e 79 be 4f 48 42 bd d6 18 9a bd 91 af e0 bd
       -0.24370694 -0.04743224 -0.07524268 -0.10970987
0000a0 38 f1 05 3e b9 44 a8 bd b2 1d 45 bc ee 1e a0 ba
       0.13080299 -0.08216233 -0.012031006 -0.0012216249
0000b0 67 03 0b be 5a f8 c8 3d 48 1e 2b bd 4e fd 09 be
       -0.13575517 0.09812994 -0.041776925 -0.13475534
0000c0 64 ef 07 be e9 c0 01 3d 17 42 83 bd 49 69 99 3c
       -0.13274914 0.031678114 -0.0640909 0.018726962
0000d0 46 ad 03 3d 46 bd f9 3d 57 49 e8 3d a2 ff 93 3d
       0.03214767 0.12194304 0.113421135 0.072264925
0000e0 e7 cc 64 3d d6 51 6b 3d 65 fd ca bd 30 24 2c 3d
       0.055859473 0.05745109 -0.099116124 0.0420267
0000f0 7d 0d da bb 2d f3 33 3e 09 ed 55 3c 92 bb 0e bd
       -0.00665444 0.17573233 0.013057002 -0.03484685
000100 e9 d3 d3 bd 38 ce e7 3d dd 7c 18 be 80 e7 bb 3d
       -0.10343153 0.1131863 -0.14891382 0.091750145
000110 db ef 30 be 43 15 ee bd f4 5e b1 bd 93 25 d7 3b
       -0.17278998 -0.11625149 -0.08660689 0.0065657585
000120 e8 2c e1 3d 07 31 ee bd 51 00 bd 3b c1 7b 43 3e
       0.10994893 -0.11630445 0.00576786 0.19090177
000130 b1 c3 a0 3b ed bc d5 bd bd 12 35 be 03 36 db bd
       0.0049061407 -0.10436425 -0.1768293 -0.10703661
000140 f5 9d 77 3d a3 25 95 3c 37 f1 10 3e 1c e5 93 bd
       0.060453374 0.018206423 0.14154516 -0.072214335
000150 2e 1e cb 3d c4 1d 08 3d e3 19 ce 3d a1 68 63 3d
       0.09917866 0.03323151 0.10063531 0.055519704
000160 43 dd 05 3d 2d 34 4c 3d 16 46 82 bc cf bf 13 bc
       0.032681715 0.049854446 -0.01590256 -0.009017899
000170 e7 bc c3 bc d4 ce 2e bd a0 44 f1 3d 3a 28 0a 3d
       -0.023893787 -0.042677715 0.11780667 0.03372977
000180 9e ba 3d bd 86 3c 6a bd 9b b1 c1 bc 10 83 9e 3d
       -0.04632055 -0.057186626 -0.02364426 0.07739842
000190 77 69 83 bd ee a4 d3 bd 1b 74 4d bd e9 23 73 bd
       -0.064166 -0.10334192 -0.050159555 -0.05936042
0001a0 7b 7c 00 3e a2 38 5f 3c 70 71 e4 3d d0 d1 ae 3d
       0.12547486 0.013624342 0.11154449 0.08536112
0001b0 a0 9c 61 be 2f 45 9c bc 98 57 2d bd ca db 02 3d
       -0.22032404 -0.019075958 -0.042319864 0.03194789
0001c0 db 16 18 bd a7 cc 14 bd 08 61 96 bd 98 a4 9d bc
       -0.03713117 -0.036327984 -0.07342726 -0.019243523
0001d0 3c 5e 36 be 3a 50 fb 3c a5 cd 7d be e9 d4 8a bd
       -0.17809385 0.030677903 -0.24785478 -0.06778891
0001e0 83 bd 06 3d 41 09 de 3d c0 a3 3d 3e 87 9c 43 3e
       0.032895576 0.10841609 0.18519497 0.19102679
0001f0 2a 81 f6 bc 50 bd 48 bd f2 c1 62 be 21 c9 c5 3d
       -0.030090887 -0.049008667 -0.22144297 0.09657503
000200 23 28 82 3d 4e 24 49 3e 1f e2 0f bd f3 e9 1c 3d
       0.06355312 0.19642755 -0.035127755 0.03830905
000210 d6 cd 8d bd e4 41 a1 3b 7c 48 a8 3d a9 12 bc 3d
       -0.06924026 0.004921185 0.0821695 0.09183247
000220 27 82 c0 bd 02 c9 19 bd 59 4d da 3c 70 53 bc bd
       -0.093998246 -0.03754521 0.02664821 -0.09195602
000230 ef 9f 13 bd 02 83 87 bd 29 b7 9d 3c bd f8 9a 3d
       -0.036041196 -0.06616785 0.019252377 0.07566974
000240 7c a4 2b 3e ff ea e6 bd 29 fc 14 b9 7e 04 68 bd
       0.16761965 -0.11275291 -0.00014208317 -0.05664491
000250 1b 94 85 bd 1c 5e 00 be a5 f9 cf 3d f0 a2 ad bd
       -0.065223895 -0.125359 0.10155038 -0.084783435
000260 56 ad 15 3e c7 ee 8e ba 0c 38 8e be c7 54 dd bd
       0.14616904 -0.0010904901 -0.27777135 -0.108071856
000270 39 d8 31 bd 3a c6 50 bd a1 81 40 be f8 9a e5 bd
       -0.043419097 -0.050970294 -0.1879945 -0.112111986
000280 a4 d2 d2 3d 98 85 bf 3d bf 86 b6 be e0 a8 00 3e
       0.10294083 0.09351653 -0.35649678 0.1256442
000290 2b d7 4f 3e c3 d8 66 bd f3 0b 40 bd d6 12 9b bd
       0.20296924 -0.056359064 -0.046886396 -0.07571952
0002a0 51 17 56 bb 00 4c a2 3d 2a 02 a4 bd 34 1d 86 bc
       -0.0032667706 0.07924652 -0.08008225 -0.016371347
0002b0 56 b4 d1 3d 75 16 3d be 34 8e 04 3e 5c b1 bb 3d
       0.102394745 -0.18465598 0.12944871 0.09164688
0002c0 53 03 83 3c 4f de 15 be 5a d6 f5 3d 8e 07 0f 3e
       0.015992796 -0.14635585 0.12003775 0.13967726
0002d0 81 af e1 bc 3a 2e dc 3d 63 0b b7 3c bf 74 fb bd
       -0.027549507 0.107510045 0.022344297 -0.12278127
0002e0 d8 a2 10 be c7 3b 4b bd 5a 13 52 bd bb 43 83 bd
       -0.1412462 -0.049617555 -0.051287986 -0.06409403
0002f0 4e 50 f4 3d 57 bb 11 bd 82 b0 dd bb 65 2f b5 3d
       0.119293794 -0.03557905 -0.006765426 0.088469304
000300 45 6d 82 bd 64 58 d8 bd d0 39 d1 3d 60 3f 9b 3d
       -0.06368498 -0.10563734 0.10216105 0.07580447
000310 9b 05 44 bd 3d 57 03 be 57 7b 47 3d 35 54 44 bd
       -0.04785691 -0.12826248 0.04870161 -0.04793187
000320 53 14 14 3e 34 89 24 be 58 c9 49 be 01 8d 46 3d
       0.14460878 -0.16067964 -0.19705713 0.048474316
000330 e2 32 91 bd 3a e2 ef 3d a1 ed b5 bd 83 80 95 3d
       -0.07089783 0.11713071 -0.08883215 0.07299902
000340 02 b0 14 be b5 8f e4 3d 10 74 44 3e f9 3a 88 bb
       -0.14520267 0.111602224 0.191849 -0.0041574207
000350 20 f1 64 3c ce bb ce 3d 97 13 09 3e 27 41 13 3d
       0.013973504 0.10094415 0.13386379 0.035950806
000360 ca ae 0b be 52 6a b7 bd 15 8d c4 be 3d a3 54 3e
       -0.13640895 -0.08955826 -0.38388887 0.20765395
000370 b5 dc bf 3c 7d bc 35 bd a9 da cc bd cd f3 05 be
       0.023420671 -0.04436921 -0.100026436 -0.13081284
000380 33 33 2b be 0a 1a 6f bc 35 76 6b 3d 70 66 34 bd
       -0.1671875 -0.014593611 0.057485778 -0.044043005
000390 88 a1 1e be d0 7b cf 3d 15 a1 aa bd 1e dc 30 3e
       -0.15491307 0.10131037 -0.08331505 0.17271468
0003a0 58 cb a3 3d 2b 04 1a 3d e3 e8 9a bc e2 42 99 bd
       0.07997769 0.03760163 -0.018909877 -0.0748346
0003b0 a7 ff 2a bd 4a 9e d9 3d 88 35 b8 bd 84 a6 3f be
       -0.041747715 0.10625894 -0.08994585 -0.18715864
0003c0 82 eb 39 bd 76 ad 07 3e 05 5d 76 3d 50 2c ef 3d
       -0.045390613 0.13249764 0.060147304 0.11678374
0003d0 e4 9d 0d 3e 79 16 d8 3d f7 92 59 bd 59 e4 37 3e
       0.13829762 0.10551161 -0.053118672 0.17958201
0003e0 f8 44 8f 3d c7 b2 0a 3d 8a be 33 be 2e 5d 3c bd
       0.069955766 0.0338619 -0.17553154 -0.0459873
0003f0 41 2e c2 3c ba 0e 82 bd b6 cc 29 be 8d 2f 3f bd
       0.023703696 -0.06350465 -0.16581997 -0.046676207
